model/models/traffic_model1.bin (torch, 275086 bytes, 6 tensors)

linear1.weight f4 [256, 4]
00000000: 165d 843e c0bc 983c 60eb e2bd f467 f13e
00000010: 0add c3be 7e31 813e 40c3 e2bc cc3f 55be
00000020: a032 183e 7c08 a83e 007e f13c ae0c cc3e
00000030: fe0c 81be ecf8 733e 6afb ac3e 466d c2be
00000040: 18a5 1abe b8c2 c1bd 78f5 933e c6a9 9e3e
00000050: 48ed 1ebe ee68 e0be d4b9 06be 285d 20be
00000060: 4006 6b3d 4c79 b1be 0099 6dbc f8db 9d3d
00000070: 10f2 46bd 8053 e6bc 70c5 bbbe 4001 bd3e
00000080: 7c58 7e3e 9698 8c3e 7ab7 d33e 20ba 01be
00000090: f8f9 68be 44a5 c93e 808a 95be 189c c33e
000000a0: 98f9 c1be b6fd e4be 5667 d93e b0d0 2d3e
000000b0: 18b6 27be 4c82 14be 5aa7 94be dec9 873e
000000c0: 0c3d a7be c019 1e3c d4c7 d33e ea8e ab3e
000000d0: 7876 a1bd f86e 3c3e ae78 e7be 88df d43d
000000e0: d429 0cbe 58ee f43d e4fd c1be 60e8 4cbd
000000f0: a883 483e 2038 313d f664 f33e 8af6 bf3e
00000100: 84f3 74be a2cf 8bbe a812 ea3d b814 21be
00000110: 38a0 ddbe 7856 9bbe b092 69be 6caf 2fbe
00000120: 5c17 a53e 78c9 d53d c266 c23e d010 5a3d
00000130: d476 49be 10ca 0dbd c06d fc3e fe79 a93e
00000140: 0090 9ab9 10b9 53bd 3077 3c3e d2d6 9ebe
00000150: 9092 c9be e0e9 e73e 10d9 11bd 302d 42be
00000160: 8648 86be d449 7cbe b84f cdbd b4d3 cb3e
00000170: 8842 d53e 0855 bebe f0bf 543e 0030 f2bd
00000180: 484c c93e 4a0d e13e 4852 9a3e 1693 b7be
00000190: d0dd 1c3d 68ce c13e 4013 833e 6e4e ff3e
000001a0: 6089 25bd b044 643d 7819 203e a6dd c3be
000001b0: f4e7 2dbe 4869 08be a8d7 eebe a604 b0be
000001c0: b2e4 823e 7054 41bd c82e f4be 1eed d73e
000001d0: 7e74 e0be 54b7 da3e 9811 75be 30f1 c5be
000001e0: d0e6 c0bd a499 80be 4c6a fdbe b485 9cbe
000001f0: 204d 5fbd 3e7c b6be c043 183e a077 d4bc
00000200: f035 c8bd 8cec 89be 687e 233e 58ba afbd
00000210: b04b ffbe 885d 8fbd 24f5 e2be acfd 803e
00000220: e04a 45bd 20bd 013d 54d2 1d3e b014 fcbe
00000230: 680e c03d 10c4 d73d 1873 ed3e 309b edbe
00000240: e001 b7bd f876 38be 9434 42be dac4 e93e
00000250: f057 10be 0679 883e 78a0 e43e d88b a9bd
00000260: f8de e13e 7eff ccbe a84e dc3d fca0 f33e
00000270: b89e aebe 6010 523d e824 9d3d 4815 0dbe
00000280: 987c 95bd 521e b9be 4c60 b53e 604e 9dbe
00000290: d4f8 013e 70dd 7b3d 40ed 573c 0ca8 9abe
000002a0: 5220 943e 00dc 17bb 80a1 c23c 122c 9c3e
000002b0: 5849 e93e 1cfd 05be a6f4 efbe 72b8 93be
000002c0: 9086 b93d 86b8 d3be f07f 46bd a40a ef3e
000002d0: bac8 833e 28f1 4cbe e00a 9e3e f480 21be
000002e0: c8a8 883e 28e3 90bd 60c7 823d 9ab1 f6be
000002f0: 3828 6cbe 2e39 df3e 8025 44bc 3883 c1bd
00000300: 00e3 b53c dccc b13e 18a4 a0be 08e3 e13d
00000310: 7c41 44be 903c 573d 344a 88be c0b4 f0be
00000320: fc6a 26be fc3b 473e aa92 82be c206 debe
00000330: d0a6 0ebd 345c 2b3e b2c9 dc3e 80af e8bb
00000340: dc93 ca3e 76d3 d03e 0cb2 6fbe faca f13e
00000350: a0ef 543d 6830 343e 4858 cf3d 7001 ac3e
00000360: 808d 89be 9406 523e 6c4d d93e a07f df3d
00000370: 5a7f afbe 44c6 533e f6f0 c23e 58e2 4b3e
00000380: 8e7f 87be 484b a0be 8889 d73d 80e5 cebb
00000390: 940e fa3e c076 55be 80ac 3ebd 30dc 70bd
000003a0: 4081 c0be a059 c13e 5c66 d43e 4007 4cbd
000003b0: 10cf 0bbe c001 7e3e 50d0 723e 5001 bdbd
000003c0: f01f fcbe 869f bc3e 9ac0 a3be 7400 cc3e
000003d0: 7280 c4be 4465 25be 084a dcbe fcd5 0abe
000003e0: 784b f03e 9809 86bd a041 ff3c 5030 5fbe
000003f0: 7eed df3e 0040 85bd 1432 333e f438 283e
0.2585227 0.01864469 -0.110800505 0.47149622 -0.38254577 0.25233072 -0.027680993 -0.20825118
0.14863062 0.32818973 0.029479027 0.39853424 -0.25205225 0.23825425 0.33785564 -0.37973994
-0.15102041 -0.09460968 0.28898215 0.30988902 -0.15520203 -0.43830055 -0.13156825 -0.15660536
0.057379007 -0.34662855 -0.01450181 0.07707971 -0.048570693 -0.028115988 -0.3667407 0.36915016
0.24838442 0.27460164 0.4135092 -0.12668657 -0.22751606 0.393839 -0.2920723 0.38205028
-0.37885737 -0.44724816 0.42461652 0.16974139 -0.16378057 -0.1450283 -0.2903393 0.265212
-0.32663763 0.009649694 0.41363394 0.33507472 -0.07883924 0.18401706 -0.4520926 0.10394198
-0.13687831 0.11959523 -0.37889016 -0.050026298 0.19581473 0.043266416 0.47537965 0.37492782
-0.23921019 -0.2730685 0.1142934 -0.1573056 -0.432863 -0.30339408 -0.22809863 -0.17156762
0.32244384 0.10438818 0.37969023 0.05323869 -0.19674236 -0.03461653 0.49302483 0.33100885
-0.00029480457 -0.05169016 0.18404841 -0.3102327 -0.3936963 0.4529562 -0.035607398 -0.1896255
-0.26227206 -0.24637538 -0.10024971 0.39809954 0.41652322 -0.3717425 0.20776343 -0.118255615
0.3931601 0.4395545 0.301409 -0.35854405 0.038297474 0.37852788 0.25600624 0.49864525
-0.040414214 0.055729568 0.15634716 -0.38255042 -0.16983014 -0.13321412 -0.46648908 -0.34378546
0.25565106 -0.047199667 -0.4769194 0.42173094 -0.43838876 0.42717993 -0.23932493 -0.38660574
-0.09419024 -0.25117218 -0.4949516 -0.30570757 -0.05451691 -0.35641664 0.14869595 -0.025935948
-0.09775913 -0.26938283 0.15966189 -0.08580464 -0.49862432 -0.070002615 -0.44327652 0.25193536
-0.04816711 0.031674504 0.15412265 -0.49234533 0.09377748 0.10535443 0.46376872 -0.4640746
-0.089359045 -0.18014133 -0.1896537 0.45657998 -0.14096045 0.26654834 0.44653678 -0.08278626
0.44115424 -0.40038675 0.1075719 0.4758376 -0.34105468 0.051285148 0.07673055 -0.1377765
-0.07299155 -0.36155945 0.3542503 -0.30723858 0.12692577 0.061490476 0.013179123 -0.30206335
0.28930908 -0.0023171902 0.02375865 0.30502373 0.4556377 -0.13084835 -0.4686634 -0.28851658
0.09058869 -0.41351718 -0.048461854 0.46687806 0.2573908 -0.20013869 0.30867672 -0.15771848
0.2669127 -0.070745766 0.06385684 -0.48182374 -0.23062217 0.43598312 -0.011971831 -0.09448856
0.022202969 0.34726608 -0.31375194 0.11029631 -0.19165605 0.05254799 -0.26619112 -0.470129
-0.16251749 0.19456476 -0.2550252 -0.4336453 -0.034827054 0.16734391 0.4312263 -0.0071009994
0.39565933 0.40786332 -0.23407763 0.4722517 0.051986337 0.1759659 0.1012426 0.33594847
-0.26865768 0.20510322 0.4244188 0.109130144 -0.3427685 0.20681101 0.38074464 0.19910562
-0.26464504 -0.31307435 0.10524279 -0.0063139796 0.48839247 -0.20846081 -0.046551228 -0.058803737
-0.3759861 0.3776369 0.41484344 -0.0498116 -0.13653207 0.24805355 0.23712277 -0.09228766
-0.49243116 0.36840457 -0.3198288 0.39844096 -0.38379246 -0.16151911 -0.4302523 -0.13558191
0.46932578 -0.065447986 0.031159222 -0.21795774 0.4373588 -0.06506348 0.17499572 0.16427976

linear1.bias f4 [256]
00000000: ec1c 743e 9ca0 80be defa fabe 8091 ee3c
00000010: fc89 583e a01d febe 10e0 353e 0ccf cf3e
00000020: fc8f 29be 724c be3e e0db 1f3d 7863 b2be
00000030: 945f 5a3e 089d f33d 903a f7bd cc9a c7be
00000040: 08fa 62be e00c fdbe 1045 81be c824 e73e
00000050: 3c62 403e ba32 cfbe 4079 fe3d 808b 9dbd
00000060: 8603 bd3e 1cb2 a83e 14cb 3bbe e8ca db3d
00000070: f26e 883e 4a33 9dbe 4479 653e d091 723e
00000080: dcc0 29be e0eb 68bd cc9c 8abe 0440 2c3e
00000090: e061 bfbd 84d5 7dbe 0ec7 fe3e ac91 b3be
000000a0: 2851 debe b8c7 633e a0b3 c13e a0a8 193d
000000b0: 2e15 c33e 98e7 aebe 5495 6bbe 92de 993e
000000c0: 3839 fdbe 88e5 f13d 306a d1be 6087 db3c
000000d0: b66b fb3e 4014 5b3c f0d3 1cbe eee0 c2be
000000e0: 7c08 393e 5882 453e 90f2 08be 0898 c7be
000000f0: 76e2 9c3e 8c42 4d3e 7e0f e8be 56b6 f13e
00000100: c005 2c3e ae68 fb3e 62e1 d83e 7e19 ecbe
00000110: 2c1f 7f3e b604 813e b045 22be 18a3 d4bd
00000120: 502b 953d 000f 1f3e a051 f13d 505d d1bd
00000130: ac9a ffbe 74af 2a3e ec1e d83e aae9 bbbe
00000140: 36ca a5be ca87 9bbe a095 2f3d 3e5e fb3e
00000150: b24d 8f3e b8b1 36be 72b3 da3e 40e9 f6bd
00000160: 447b 2a3e a05c 94bc cc50 8e3e e498 aa3e
00000170: 1878 f7be a444 723e 5ee9 a63e 4cf2 77be
00000180: d849 5bbe 5090 9dbe c096 fd3e e064 cc3c
00000190: 7078 18bd 06d2 c53e 607f a53d 0a26 af3e
000001a0: a416 e2be 005a 4bbe 6c7d 02be d011 3d3e
000001b0: 3e38 c93e bcac 1ebe 4069 943e 6055 c83c
000001c0: 00e1 67bd 3cd2 723e e472 693e 3c5d 70be
000001d0: b0ba 1b3d fc0d d0be 88f5 be3d 0eab a4be
000001e0: 8a5d e23e 106f 843e 94d3 ffbe 0007 ea3c
000001f0: a861 943d 2859 9dbe 5029 6a3d cc0f db3e
00000200: 30ca 04bd 7e65 d2be 6280 aa3e b004 26bd
00000210: 203f 0c3e 006d 573e 584d b93d 4015 e6bc
00000220: 9e8e de3e 485f 9ebe f4da a83e 80cb f5bd
00000230: f8dd 22be cc07 a2be a0ae 653d e092 623e
00000240: 706c e8be b0a4 3dbd b493 22be 86aa f73e
00000250: 4076 f1be 045e 073e 468c e83e 5e94 8e3e
00000260: b000 36bd c01f adbd b8d6 e5bd e048 e63c
00000270: d027 fcbd baf4 c5be a436 afbe 30d1 2dbd
00000280: 5ac7 e9be 484d ef3e f854 2f3e 548f 863e
00000290: caf2 ac3e b06f 55bd 92df b4be 42eb 99be
000002a0: 7025 5ebd 2c91 c73e a841 4fbe 4a61 bb3e
000002b0: 9a1f bebe 707b 86be 147b 193e 0acb a1be
000002c0: 346d a5be ee49 e53e 30b6 b43d a0ca d7bc
000002d0: 8420 9abe 102a 9b3e f801 8abd 508e 7cbe
000002e0: c00f d23d e059 f73e fc62 f5be b6aa d83e
000002f0: e837 b63e a083 5d3d 62b3 833e 303a 653e
00000300: 6867 45be 88c2 e73d a8f0 7f3e e071 d9bc
00000310: 5c0d c1be 4093 4fbc 2a87 c33e ae1f bc3e
00000320: 8440 ffbe b22b e23e 64a2 fcbe d8b7 31be
00000330: f070 793d 6850 ff3e 70ac 7ebe d0d8 1e3e
00000340: dc59 73be 5082 c1be acca bc3e 348b a1be
00000350: 58f3 173e 644f 43be 7c84 1f3e 0084 cdbe
00000360: 009f 85bd d0d8 a5bd 4438 8dbe c25e e4be
00000370: 2845 f1be 7650 80be 1499 2bbe fc63 3cbe
00000380: fc56 8ebe e815 b6bd 8095 1a3c 0020 cfbd
00000390: d8e2 bf3d 78c9 ee3d d061 8c3d 22a6 a7be
000003a0: b87a 4c3e 9e56 8f3e 62f6 e3be bc65 f03e
000003b0: d41b 363e 209b fdbd b062 95bd 0011 403b
000003c0: a08a ec3d 7c31 83be dc2c d13e 824d c33e
000003d0: 7801 db3d c00a af3e 1285 cc3e 38e0 84bd
000003e0: d4d7 5e3e e4a6 d5be bce9 7a3e a0e2 d9be
000003f0: 643b c9be 8432 5fbe 9001 d9bd 6c52 29be
0.23839158 -0.25122535 -0.4901952 0.029122114 0.21146387 -0.49631977 0.17761254 0.40587652
-0.16558832 0.37167698 0.03902805 -0.34841514 0.21325523 0.11895186 -0.12071717 -0.38985288
-0.22165692 -0.49423885 -0.25248003 0.4514525 0.18787473 -0.4046839 0.1242547 -0.07692623
0.3691675 0.32948387 -0.18339187 0.10732061 0.26647145 -0.30703193 0.2240954 0.23688436
-0.16577476 -0.056865573 -0.27072752 0.16821295 -0.0934484 -0.24788481 0.49761242 -0.35072076
-0.43421292 0.22244155 0.37832355 0.03751433 0.38102096 -0.34161067 -0.23006183 0.3005262
-0.49457717 0.11811358 -0.40901327 0.02679795 0.49105614 0.013371527 -0.15315223 -0.38062233
0.18069643 0.19288003 -0.1337378 -0.38983178 0.30641526 0.20044917 -0.4532432 0.47209424
0.16799068 0.49103302 0.42359453 -0.461132 0.24914235 0.25198907 -0.15846896 -0.1038267
0.07283652 0.15533066 0.11783147 -0.10222876 -0.49922693 0.16668493 0.42211092 -0.3670171
-0.32380837 -0.30377036 0.042867303 0.4909534 0.27988964 -0.17841232 0.4271503 -0.12056208
0.16648585 -0.018110573 0.27796018 0.3331977 -0.48333812 0.23658997 0.3259992 -0.24213523
-0.21414888 -0.30774164 0.49529076 0.024950445 -0.037224233 0.38636798 0.080809355 0.3420871
-0.44157898 -0.19858551 -0.12743157 0.18463826 0.39300722 -0.1549558 0.2898655 0.024454772
-0.05661106 0.2371301 0.22797734 -0.23473066 0.038019836 -0.4063567 0.09324175 -0.32161754
0.4421199 0.25865984 -0.4996611 0.028567791 0.07245189 -0.30732083 0.057168305 0.4278549
-0.032419384 -0.41093057 0.33301073 -0.040531814 0.13695955 0.21037674 0.09047955 -0.028086305
0.43468183 -0.3093207 0.32979548 -0.12001705 -0.15904987 -0.31646574 0.05607474 0.22126341
-0.4539523 -0.046299636 -0.15876657 0.48372287 -0.4716053 0.13219458 0.4541952 0.2784757
-0.04443425 -0.084533215 -0.11222595 0.028110921 -0.12312281 -0.38663274 -0.34221375 -0.042435825
-0.45659906 0.46738648 0.17122257 0.26281226 0.33778983 -0.052108467 -0.3532682 -0.300623
-0.054234922 0.38977945 -0.2023989 0.36597663 -0.37133485 -0.2626605 0.14988357 -0.3160022
-0.32309878 0.44782966 0.08823812 -0.026341736 -0.30102932 0.3030553 -0.06738657 -0.24663663
0.1025691 0.48310757 -0.47927082 0.42317742 0.35589528 0.054080606 0.25722796 0.22385478
-0.19277728 0.11316401 0.24994147 -0.026543558 -0.37705505 -0.0126693845 0.3818906 0.3674292
-0.4985391 0.44173962 -0.49342644 -0.17355287 0.06089872 0.49866033 -0.24870467 0.15512395
-0.23764747 -0.37794733 0.36873376 -0.31551516 0.14838922 -0.19073254 0.15577883 -0.4013977
-0.065244675 -0.08097994 -0.2758199 -0.44603544 -0.47123075 -0.25061387 -0.16757613 -0.18397516
-0.2780074 -0.08890897 0.009435058 -0.101135254 0.09369439 0.11659521 0.06854594 -0.32743937
0.19968688 0.2799577 -0.44523913 0.46952617 0.17784053 -0.12383103 -0.07294214 0.0029307008
0.11549878 -0.2562369 0.40854537 0.3814507 0.106936395 0.3418789 0.39945275 -0.06488079
0.2176202 -0.4172889 0.24503225 -0.42555714 -0.39303124 -0.21796614 -0.10596001 -0.16535348

linear2.weight f4 [256, 256]
00000000: bcb0 45bd b044 293c f044 58bc dc3b 153d
00000010: 5c82 6dbd 6090 403d 1a60 1dbd f0b1 1e3c
00000020: 50bc 13bd a8c8 0c3d 007f 9d3a 32b9 363d
00000030: 1cbb 4f3d 5a8e 5e3d c064 663d 500f a2bc
00000040: 2025 af3c 04be 643d 58fc 743c a87a 6fbd
00000050: be35 6bbd 10b5 7a3d 1899 9dbc 5622 3abd
00000060: 105a dc3b 3050 1b3d fc3e f8bc 00d2 8fbc
00000070: 3a50 0b3d 107b 153d 207a dd3c 506c ff3c
00000080: bcc8 8b3c 504e 0cbc 8085 eebc 701c 66bd
00000090: 0a92 6a3d 704c 473c 00de 453c 4857 3ebc
000000a0: 46bf 70bd e053 0c3d 6a91 77bd 1eb4 13bd
000000b0: a25a 0cbd 6ef6 59bd 92d9 123d ca2e 083d
000000c0: b62d 6fbd 7e6e 243d ac3c 4c3d 284c 9abc
000000d0: 207f 4f3d e88a 3dbd 36d3 60bd b22e 22bd
000000e0: 4040 debc 30d0 7fbd 7860 bb3c 3418 cdbc
000000f0: a807 1fbc 6c66 003d c0bd 083b a010 a13b
00000100: 500c 72bc 441d 9dbc 00fc 5cbd 50a8 7cbd
00000110: acfe 01bd 9ee6 47bd 6ca2 aa3c d84d cabc
00000120: 500b 463c 4839 65bd 60f9 7bbb 602c bc3b
00000130: 060d 193d 2272 413d 24d3 7dbd 1001 a83c
00000140: 7244 45bd 8645 603d bc4f 163d 18b2 73bc
00000150: f4de 7c3d f4c0 aabc 146f 48bd 80ce da3c
00000160: d494 a63c 00ef 57bd b01c b73b e872 19bd
00000170: ec03 efbc 00a8 b0bb a81c 2a3d a08b cd3c
00000180: a0fb f03c 106e 1d3d 2419 f6bc b0d0 d0bc
00000190: 986f 443d bc33 6b3d 848e d7bc bc11 393d
000001a0: b0bf 4fbc 2042 40bb 0295 39bd e25b 533d
000001b0: 08b6 a43c 3cd8 b73c 6ce3 53bd 4043 443c
000001c0: a8f8 c63c 888e cebc 28f7 61bc f075 ff3c
000001d0: f45e 70bd 4056 a93b a0d9 c83c 98a3 52bc
000001e0: 58fc 06bd a812 31bd d4b2 58bd 98f5 46bc
000001f0: 6a00 313d 7e1e 073d 8eb9 323d 085a 5bbc
00000200: d4ee 753d 6a00 513d 5018 f1bc 284f b83c
00000210: 68e4 14bc 18f9 6abc 5038 203d d019 ad3c
00000220: cc2b f73c 08cd 813c 141f 273d 8070 75bb
00000230: 5868 353c 487a 55bc 3c83 373d b477 59bd
00000240: 2481 8fbc 1018 0f3c c830 253c b835 373c
00000250: c0f3 be3a 70b7 953c c8f2 c5bc dcdd 50bd
00000260: 086a 35bd 9c6d b0bc 5e1c 63bd d083 6cbd
00000270: b46a 0abd 66ca 24bd f0dc 3b3c f8b6 4fbc
00000280: bcde 4b3d b2e5 60bd da31 32bd 4005 363b
00000290: 5458 5c3d e0a8 55bb d0d5 63bc a41d ac3c
000002a0: 3891 633c c096 e13b b071 cebb 509d 5b3c
000002b0: 141b f03c 9842 23bc ce3b 213d da46 333d
000002c0: a841 aabc b0c0 7bbd d0bc 163c aebf 7dbd
000002d0: 9027 9cbb c028 69bd 3c07 fabc 4acb 00bd
000002e0: c031 c93b 1c09 80bc 7042 cfbc e0f6 513d
000002f0: 9c8d fd3c e63b 473d 32ea 413d d2c0 61bd
00000300: 4039 17bd 6e50 673d c028 903a 60b3 e03b
00000310: 801e 03ba 8043 a9ba 86d2 763d 201c bbbb
00000320: 94f1 ce3c 406e f53a 80c8 7ebc 18f4 123d
00000330: f82e 4abc 5417 7b3d c4f4 f2bc 40a9 df3b
00000340: 7261 793d d026 1cbd b0e6 82bb 34c6 5a3d
00000350: 00ce aabc c011 453d d0cb 8cbc 1087 233d
00000360: 482b e53c e0bf f3bb 00ca 19bc d439 19bd
00000370: 6282 2e3d 2430 5abd ec05 fbbc 0042 d4bc
00000380: 74df 9f3c 0253 5ebd d299 47bd d8c9 423c
00000390: 1e03 67bd ba85 76bd 8cf3 c83c 524d 10bd
000003a0: 1a9d 01bd 605b 3d3c 6008 eebb 1065 903b
000003b0: e00b b0bc d474 25bd 2c64 b83c 7c51 213d
000003c0: c0b2 2c3d 803b e6ba 848a e63c 58f4 053c
000003d0: 20dc c83b 2003 01bd c860 6ebd 260e 4c3d
000003e0: 8021 313a 7acf 75bd 18d7 5f3c 5ed6 3e3d
000003f0: 70a9 4c3c 10ee 7bbc f81e c9bc 30f8 b3bc
-0.04826425 0.010331318 -0.01320003 0.03643404 -0.05798565 0.047012687 -0.038421728 0.009685978
-0.03606826 0.03437105 0.0012015998 0.04461021 0.05071555 0.054334976 0.056248426 -0.019782692
0.021380007 0.055845276 0.014952742 -0.058466583 -0.0574243 0.06120783 -0.01923804 -0.0454429
0.0067246035 0.03791827 -0.03030347 -0.01755619 0.034012057 0.036494315 0.027035773 0.031179577
0.017063491 -0.008563593 -0.029116392 -0.056179464 0.05726818 0.01216422 0.012076855 -0.011617489
-0.058776163 0.034259677 -0.060441412 -0.036060445 -0.03426612 -0.05321353 0.035852022 0.033247747
-0.058393203 0.040144436 0.04986255 -0.018835142 0.050658345 -0.04627505 -0.054888926 -0.039595313
-0.027130246 -0.062454402 0.022873148 -0.025035955 -0.009706415 0.031347677 0.0020865053 0.004915312
-0.014773443 -0.019178994 -0.053951263 -0.061683953 -0.031737015 -0.048803918 0.020829402 -0.024695322
0.012087658 -0.05596283 -0.00384482 0.0057425946 0.037365936 0.047227986 -0.061968938 0.02050832
-0.048160978 0.054753803 0.036697134 -0.014874004 0.061736062 -0.02084396 -0.048934057 0.026709795
0.020334639 -0.052718163 0.0055881366 -0.0374631 -0.029176675 -0.005391121 0.041531235 0.025090992
0.02941686 0.038435042 -0.030041285 -0.025490135 0.047957987 0.057422385 -0.026313074 0.04518293
-0.012679979 -0.0029336289 -0.04530812 0.0516013 0.02010633 0.022441976 -0.05173056 0.011978924
0.02428849 -0.025214449 -0.013791837 0.031184167 -0.058684304 0.0051677525 0.024517834 -0.012856387
-0.032955498 -0.043230683 -0.05290492 -0.012143515 0.043213286 0.032988064 0.04363399 -0.013388164
0.060042217 0.051025786 -0.029430538 0.022498682 -0.009087659 -0.014341615 0.039116204 0.021130472
0.030172251 0.015844837 0.040801123 -0.0037451088 0.011072241 -0.013029642 0.04480289 -0.053092673
-0.017517634 0.008733764 0.010082431 0.011182241 0.0014568493 0.018275946 -0.024163619 -0.05099283
-0.044290572 -0.02153664 -0.055446975 -0.057742894 -0.033793166 -0.040232085 0.01146625 -0.0126779005
0.049772963 -0.054906555 -0.043504573 0.0027774125 0.053795174 -0.0032601878 -0.013905957 0.021010228
0.013889603 0.006884426 -0.0063001737 0.013404205 0.029309787 -0.009964608 0.039363675 0.04376874
-0.02078326 -0.061463058 0.00920029 -0.061950378 -0.0047654584 -0.056923628 -0.030521028 -0.03144387
0.006139964 -0.015629344 -0.025300235 0.05126083 0.030951314 0.048641108 0.047342487 -0.05511553
-0.036919832 0.056473188 0.0010998473 0.0068573207 -0.0005001798 -0.0012913793 0.060259365 -0.00571014
0.025261678 0.0018724874 -0.015550733 0.035877317 -0.0123403 0.061301544 -0.029657729 0.006825596
0.060883947 -0.038122952 -0.0039947852 0.053411677 -0.020850182 0.04811263 -0.01718703 0.039923728
0.02797474 -0.0074386448 -0.009386539 -0.037408665 0.04260481 -0.053268567 -0.030642472 -0.025910378
0.01951573 -0.05427838 -0.04873068 0.011888944 -0.056399457 -0.060186125 0.024530195 -0.03522999
-0.031643964 0.01155743 -0.007264182 0.004406579 -0.021490037 -0.04039462 0.022508703 0.03938435
0.042162657 -0.001756534 0.028142221 0.008175932 0.0061297566 -0.03149712 -0.058197767 0.04981818
0.0006757006 -0.06001232 0.013662122 0.046591155 0.012491569 -0.015376583 -0.0245509 -0.021968931

linear2.bias f4 [256]
00000000: 5c58 c1bc 5805 2abd fc8a 1cbd 4410 193d
00000010: 0096 4a3a a8c2 73bd a4eb 18bd 7aea 483d
00000020: b091 843c 08b6 67bc 909d a43b d8e8 52bd
00000030: 3eb0 103d fa7f 723d 6856 633d 7276 153d
00000040: 4004 a8bc 0cfa 593d 7232 4a3d dcb6 8fbc
00000050: 1c64 45bd 6802 6b3c d898 503d 1a4b 79bd
00000060: 88aa 3d3c 2012 213b 70ea 783c c0a1 4dbd
00000070: 40aa 40bb 7c83 9c3c 884c 4fbd 5ca8 b7bc
00000080: a013 153c 3c68 8f3c b46b 393d 48a9 4e3c
00000090: 3897 173d 8ade 193d 80d9 48bd a062 70bc
000000a0: 6269 553d 9089 163c c485 15bd a8aa c9bc
000000b0: 1c95 45bd 5c77 9abc 4411 393d 20f8 a83b
000000c0: 8653 27bd 7465 183d 4087 573d 1e7d 1c3d
000000d0: f0ea 4d3d 9cd7 3cbd e064 6a3c d094 2dbd
000000e0: 52e5 133d 969d 47bd 96f1 7a3d 22a3 773d
000000f0: 98a2 a2bc 20e8 65bd 8079 6e3a 208d 33bb
00000100: f6de 50bd c411 5fbd 0072 5dba d00c da3c
00000110: 52cd 3abd 3617 783d 98fe 55bd 1032 9abc
00000120: ce66 59bd d096 0fbd f4b7 8dbc d00d f9bc
00000130: 9cfa d53c d0a8 68bc 80b0 3abb e0ae 3a3c
00000140: f6c9 523d a469 39bd ba74 38bd dc98 d9bc
00000150: 4877 243d 448d 273d 6688 6ebd 706c 63bd
00000160: 0237 643d b491 e5bc 94d6 403d 2c5b b03c
00000170: 5006 fc3b ecb1 40bd a0cc 793c e028 9fbb
00000180: 3c74 123d 00e8 bdbc e8ba 69bc 5cf3 66bd
00000190: 8053 e33b 94c5 42bd 2af7 50bd c0c2 1bbb
000001a0: 302d 5b3c 0c12 5f3d e4dc a83c ec13 70bd
000001b0: 6824 8dbc 5419 d2bc 3636 603d 5826 a03c
000001c0: 0eeb 623d d661 1b3d fc92 ad3c c49a a1bc
000001d0: 18f2 cd3c 10b5 00bd 4aa3 3d3d 2c9b d93c
000001e0: e034 853b cec3 25bd 0492 863c e6bd 2abd
000001f0: 38c0 2b3d 100b 2dbc 40e7 5ebd 00be e2bb
00000200: 60b7 08bb 4416 21bd 3882 30bd 58df 7b3c
00000210: b263 223d 304d f4bc f09b d13b 5edc 26bd
00000220: 965b 1dbd 1204 623d 7c3b a13c 285c 4c3c
00000230: 281a 9dbc 5c60 6bbd 2400 9c3c 8a20 26bd
00000240: cc63 6abd 705e 8ebb 00d4 643c 2800 49bd
00000250: 1c3d a43c 8c7c 13bd fef5 743d 143a a23c
00000260: 2ae4 6b3d c8ec ef3c 54af 7c3d d813 98bc
00000270: e225 1f3d cc69 d3bc 5a5d 503d d066 3a3d
00000280: 0c64 cebc 9671 7dbd a884 3f3c f4b2 66bd
00000290: b08d dabc d441 9f3c 9a28 703d f847 5ebc
000002a0: 80e8 053d 868d 38bd b44b 19bd a8af d6bc
000002b0: f812 e73c fcfd 2abd ec19 b8bc 10a8 eb3b
000002c0: 589e 1b3d 9c85 743d 203e 813c 60f5 043c
000002d0: c067 32bc e62f 2d3d a612 33bd 8864 bfbc
000002e0: e0e7 a83c 9ad8 163d 54f2 b33c 609c ad3b
000002f0: 3c6b 093d 36fe 633d 004c 43ba 5058 4bbd
00000300: 4a46 7cbd 58e5 c1bc 6077 03bd c0a0 0cbd
00000310: e854 17bd c07a e3ba 506f 2abd 90bb ef3b
00000320: 5831 2ebc 0852 423d 2c39 0dbd 8c96 0f3d
00000330: 5486 16bd ee05 32bd 30b2 743c f069 8bbc
00000340: a02e 203b bcad 4cbd 38a9 1ebd b447 e9bc
00000350: 10f0 82bb 2cdd 1d3d 6c4e cf3c f884 f53c
00000360: a8cb a93c 60a5 cbbc 50a2 2d3c 401e 7ebc
00000370: 308a c2bc 5ceb b3bc 904a 163c 60cf 25bc
00000380: b660 423d 1015 22bd 96b5 0fbd b047 913b
00000390: 1455 c8bc ea50 2d3d e004 7bbb e024 e63c
000003a0: 5ed4 34bd 7088 be3b d028 803c bcb7 85bc
000003b0: ba06 5a3d e009 93bc feea 34bd 9e86 373d
000003c0: 64ee c9bc 7837 613c 0052 c83c 4074 b63c
000003d0: 185f 5a3c e682 233d d6f7 373d 8c0e 573d
000003e0: a886 3fbc 0880 2c3d c614 13bd 92ad 49bd
000003f0: 3897 063c 00b5 30ba 4017 bb3c d40d b03c
-0.023601703 -0.041509002 -0.038218483 0.037369028 0.000772804 -0.05951181 -0.0373341 0.04905174
0.01618275 -0.014142521 0.0050236657 -0.05149159 0.035324328 0.05920408 0.055502325 0.03648991
-0.020509839 0.05321698 0.049364515 -0.017543249 -0.048191175 0.014343835 0.050927013 -0.060862638
0.011576302 0.0024577454 0.015192613 -0.050203085 -0.0029398352 0.019105665 -0.050610095 -0.022419147
0.009098917 0.017505758 0.04526873 0.012613602 0.037009448 0.037565745 -0.04903555 -0.0146719515
0.052102454 0.009188071 -0.036504522 -0.024617508 -0.048237905 -0.018855743 0.04518248 0.005156532
-0.04085114 0.03720613 0.05261922 0.03820526 0.050272882 -0.04610406 0.014306277 -0.042378247
0.03610737 -0.04873427 0.06126555 0.06045831 -0.019852921 -0.056129575 0.00090970844 -0.002739735
-0.050993882 -0.054460302 -0.0008447468 0.026617438 -0.045605965 0.06056901 -0.052244753 -0.0188227
-0.053076558 -0.035055935 -0.01729963 -0.030402094 0.026120476 -0.014200404 -0.002848655 0.0113942325
0.051462136 -0.045266762 -0.045033194 -0.026562147 0.040152818 0.040906206 -0.05823555 -0.055523336
0.055716522 -0.028023578 0.047079638 0.02152785 0.007691182 -0.04704468 0.01524654 -0.0048571676
0.03575538 -0.023181915 -0.014265753 -0.05638443 0.006937444 -0.047551706 -0.051016964 -0.0023767203
0.013377473 0.05446057 0.020613141 -0.05861275 -0.017229274 -0.025646843 0.0547392 0.019549534
0.055399947 0.0379351 0.021188252 -0.019727118 0.025139853 -0.031422675 0.046298303 0.02656325
0.004065141 -0.040469937 0.016427048 -0.041685008 0.04193136 -0.01056172 -0.054419756 -0.0069196224
-0.0020861253 -0.039327875 -0.043092936 0.0153730735 0.039645858 -0.029821962 0.006396763 -0.040737502
-0.03841742 0.055179663 0.019681685 0.012473144 -0.019177511 -0.057464942 0.019043036 -0.040558375
-0.05722408 -0.004344754 0.01396656 -0.049072415 0.02004867 -0.03600745 0.05980491 0.019803084
0.05759064 0.02928771 0.061690643 -0.01856415 0.038854487 -0.025807284 0.050870277 0.045508206
-0.02519419 -0.061875902 0.011689343 -0.056323007 -0.02667889 0.019440569 0.05863247 -0.013566963
0.032692432 -0.045056842 -0.03742571 -0.026206806 0.028207287 -0.041746125 -0.022473298 0.0071916655
0.037992805 0.059697732 0.015776694 0.008115143 -0.010888994 0.042282008 -0.043718956 -0.023363367
0.02061838 0.03682766 0.021966137 0.0052981824 0.033549532 0.055662356 -0.00074499846 -0.04964477
-0.06159047 -0.02366893 -0.032096267 -0.03433299 -0.036946207 -0.0017355308 -0.041610062 0.0073160604
-0.010631882 0.047441512 -0.03447835 0.035055682 -0.0367492 -0.043462686 0.014935061 -0.017018288
0.0024441853 -0.049970374 -0.0387356 -0.028476574 -0.003995903 0.038541004 0.02530595 0.029970631
0.020726994 -0.02485913 0.01059778 -0.015510142 -0.023747534 -0.021962814 0.0091730505 -0.010120243
0.047455512 -0.039570868 -0.035085283 0.0044335946 -0.02445463 0.042313494 -0.0038302466 0.028093755
-0.04414784 0.0058146045 0.01564446 -0.016322963 0.05322907 -0.017949045 -0.04416942 0.044806115
-0.024649806 0.013746135 0.024453163 0.02227223 0.013328336 0.039919756 0.04491409 0.052504107
-0.011689819 0.042114288 -0.035908483 -0.049237795 0.008214764 -0.0006740838 0.022838235 0.021490969

linear3.weight f4 [4, 256]
00000000: 946b 5dbd 966b 6a3d 50cb 0cbd d447 023d
00000010: 6a45 713d 74b8 69bd d24e 743d 8078 41bb
00000020: 6022 f9bb a887 54bd 2854 38bc 1034 cdbb
00000030: 7446 66bd dea9 213d 1620 6cbd a02d f6bc
00000040: 00b4 f0b9 5aa0 4dbd 7082 533d 9014 453c
00000050: 16a0 60bd 34a4 49bd d0a1 0b3d 0026 96b9
00000060: 522c 6cbd 802a aaba 4275 0bbd 026e 10bd
00000070: be37 02bd e8f3 c63c 3c96 a33c 60b8 a83b
00000080: 143e f1bc de9e 2b3d 1213 013d 00fa 7a3a
00000090: bce3 8b3c e06a 1ebc 0a8b 22bd c6b9 6d3d
000000a0: 10f1 f03b 4e36 0fbd f47c 7f3d ba1f 60bd
000000b0: bc76 67bd 8090 7f3d 8813 8cbc 84d6 85bc
000000c0: 802b 27bd 10f7 0ebd 2099 6ebb 6c7a 9c3c
000000d0: 3822 ba3c 7adc 73bd 3877 443d 5467 b73c
000000e0: 4c6b 293d c0d5 31bc f03c 413d 9ca1 3b3d
000000f0: 007d 0bbb 84ee 583d f4dc bb3c 80ed edbc
00000100: 0000 4b3b 6050 0ebd f8a4 2d3d fcf3 8c3c
00000110: 3845 f9bc 02ec 7d3d dcbc 483d e013 c23b
00000120: bcfa 623d a08f f7bc ce1f 4bbd 949b 2dbd
00000130: 0479 373d 6c96 98bc 488b 193d 4055 11bd
00000140: 7c2b 323d 7c2c 87bc e69a 1ebd e033 21bc
00000150: d47b 6b3d 9c9b 313d 641f ab3c 184b 8d3c
00000160: 18c2 503d f2b7 2a3d 66e8 7abd 745f a6bc
00000170: d842 383d a499 bfbc 4072 473c 60f6 2c3c
00000180: 6ac0 613d 007c 18bd a6c6 2cbd 9476 083d
00000190: 3054 a63b 784a 0ebd 88d1 d4bc 98bd ba3c
000001a0: 04bb bf3c a0c0 2dbd cc29 923c 2090 663c
000001b0: 2c4e 413d b0f2 63bc 2068 163d c0a2 c5bc
000001c0: a89e 793d 9625 233d 683e 1a3d cead 68bd
000001d0: 22a9 35bd b052 b53b d0bb 39bc 3464 933c
000001e0: ca6e 00bd 0aba 7cbd 74fa c6bc 58e3 503d
000001f0: 1adc 763d 7e5b 7b3d e8dc 33bd 2e44 02bd
00000200: 3a5c 0abd b473 13bd e2dc 5b3d 8c32 7d3d
00000210: 881f 6bbd 803c e43b ca1b 6e3d e8be e4bc
00000220: a6ee 43bd c814 1bbd 0055 74bb 60b9 67bd
00000230: 9077 243c 584a 00bc 6410 993c 363b 4abd
00000240: 9e65 0ebd 4818 653c 0c16 35bd 105f 353c
00000250: 20c7 f7bc d8db 52bc 4a38 013d 9ceb 52bd
00000260: 8ccd 32bd c807 503d 8a90 62bd 6413 3abd
00000270: dc4f 183d 7cf1 a6bc b631 58bd e48d 103d
00000280: a0cb 6b3d 6ef5 4e3d 98eb 313d 7ca7 403d
00000290: 7ce9 6fbd 8081 8c3b 3a7e 743d a429 323d
000002a0: b032 c2bc b446 edbc 666a 743d c82c 48bc
000002b0: 1426 2dbd 249a 3f3d 3047 883b 6ed2 76bd
000002c0: f031 8f3c 0ca8 6d3d a042 dfbc 0088 183c
000002d0: 026d 683d d466 333d 806e 663a 084f 103d
000002e0: c88f de3c 602c c43c 1211 573d b097 79bc
000002f0: 2048 513b b01c 25bc 46f2 073d d075 943c
00000300: 00e7 76bc 084d 743d 58d8 2ebd dcbe 0abd
00000310: fe03 5bbd 9abb 74bd 9ab5 7ebd 9084 6a3c
00000320: 10fa 1b3d 8636 313d 88c6 1abc 6089 87bb
00000330: b0c6 2bbc 0eaf 02bd c0f9 27bc 8c15 b8bc
00000340: e8aa 213c 84db 11bd 14a9 64bd bc37 e13c
00000350: 1007 f43c a8f4 353d 1041 823b fa4d 40bd
00000360: f432 6e3d 76bf 6c3d 22c8 003d d45e c23c
00000370: c0d0 64bb 46b3 5f3d 608f ffbc 9059 2f3c
00000380: 300a 5cbc e858 9fbc 84b8 7ebd 1c27 cb3c
00000390: 6882 6a3d 40a8 ba3a d0ac 5a3d 3006 93bc
000003a0: 44b9 5b3d c01e b5bc e0e1 d9bc d070 f43b
000003b0: 00e6 4a3b 88b3 493d 18bc 52bd 40c3 4fbd
000003c0: 509c f0bb 2080 093c 9435 45bd f011 e8bb
000003d0: e83a ea3c 00d1 e63a d8e4 7bbc e08e acbb
000003e0: 2ac2 0a3d c0a5 e3bb a8d3 6fbd d2b5 6a3d
000003f0: 383b 463d 7062 353c 025b 5a3d a2ef 1c3d
-0.054057673 0.05723151 -0.03437358 0.031806782 0.05890409 -0.057060674 0.05964548 -0.0029521286
-0.007602975 -0.051887184 -0.011250533 -0.00626231 -0.056219533 0.03946864 -0.057647787 -0.030051053
-0.00045910478 -0.05020175 0.051638067 0.012028828 -0.05484017 -0.049228862 0.034089863 -0.00028638542
-0.057659455 -0.0012982637 -0.034047373 -0.03526116 -0.03179144 0.024286225 0.019969098 0.0051489323
-0.029448546 0.041899554 0.031512327 0.0009573996 0.017076366 -0.009669036 -0.03968338 0.058038495
0.0073529556 -0.0349639 0.062375024 -0.054717757 -0.05650972 0.062393665 -0.017099157 -0.01633764
-0.04081297 -0.034903586 -0.0036407188 0.019101344 0.022721395 -0.059536435 0.04796526 0.022388138
0.041362092 -0.010854185 0.047177255 0.04580842 -0.0021284223 0.05296184 0.022932507 -0.029043913
0.0030975342 -0.03474462 0.042393655 0.017206185 -0.030428514 0.061992653 0.049008235 0.0059227794
0.0554149 -0.030219853 -0.04959088 -0.0423847 0.044793144 -0.018626414 0.037486345 -0.03548169
0.0434985 -0.016500704 -0.03872194 -0.009839028 0.05749114 0.04336129 0.020888992 0.017247722
0.050966352 0.04167933 -0.06125679 -0.020309187 0.044985622 -0.023388691 0.012173235 0.010556787
0.05511514 -0.03722763 -0.042181633 0.03331621 0.005075954 -0.034738988 -0.025978819 0.022795483
0.023404606 -0.04242003 0.017842196 0.014072448 0.04719369 -0.013912842 0.036720395 -0.024125457
0.060942322 0.039830767 0.03765717 -0.056806378 -0.04435075 0.0055335388 -0.011336282 0.017992117
-0.031355657 -0.06170086 -0.024289347 0.050998062 0.0602685 0.06136655 -0.043911844 -0.031803302
-0.03377936 -0.035999015 0.053677447 0.061815783 -0.057403117 0.00696522 0.05813197 -0.027923062
-0.047835015 -0.037861615 -0.003728211 -0.05657327 0.010038272 -0.007830225 0.018684573 -0.049372874
-0.03476488 0.01398284 -0.04421048 0.011070028 -0.030246317 -0.012869798 0.031547822 -0.051494226
-0.043653056 0.05078867 -0.055313624 -0.04542865 0.037185535 -0.02037882 -0.052781783 0.035291567
0.05756724 0.05052703 0.04343757 0.047034726 -0.058572277 0.0042878985 0.05969069 0.043496743
-0.02370581 -0.028964378 0.059671782 -0.012217708 -0.042272642 0.04677786 0.004158877 -0.060259275
0.017479867 0.05802159 -0.027253449 0.009309769 0.056744583 0.043799236 0.00087902695 0.03523162
0.02716817 0.02394694 0.052506514 -0.015233919 0.003193386 -0.01007764 0.033190034 0.018122584
-0.015069723 0.059643775 -0.04268679 -0.033873424 -0.053470604 -0.059749223 -0.062184907 0.014313832
0.038080275 0.04326489 -0.009446748 -0.0041362494 -0.0104843825 -0.031905226 -0.010252416 -0.022471212
0.009867407 -0.035609737 -0.055825308 0.027492397 0.029788524 0.044422776 0.003975041 -0.046949364
0.05815406 0.05779978 0.03144086 0.023726858 -0.0034914464 0.054614328 -0.031196296 0.010702506
-0.013430163 -0.019451573 -0.062187687 0.024798922 0.05725327 0.0014240816 0.053387463 -0.017947286
0.05364348 -0.02210939 -0.026596963 0.0074597374 0.0030959845 0.04924348 -0.05144891 -0.050723314
-0.0073428527 0.008392364 -0.0481468 -0.0070822164 0.028592542 0.0017609894 -0.015374385 -0.0052660555
0.033876576 -0.006947249 -0.05855146 0.057302304 0.04839632 0.011070833 0.053309448 0.03831447

linear3.bias f4 [4]
00000000: c876 553d 00b2 66ba 20a2 db3c 00ec a7bc
0.05211523 -0.0008800328 0.026810706 -0.020498276
